…
12/15 02:45:26 PM: cls_loss_fn = 
12/15 02:45:26 PM: cls_span_pooling = x,y
12/15 02:45:26 PM: edgeprobe_cnn_context = 0
12/15 02:45:26 PM: use_classifier = sst
12/15 02:45:26 PM: 	Task 'sst' params: {
  "cls_type": "mlp",
  "d_hid": 256,
  "d_proj": 256,
  "shared_pair_attn": 0,
  "attn": 1,
  "d_hid_attn": 512,
  "dropout": 0.2,
  "cls_loss_fn": "",
  "cls_span_pooling": "x,y",
  "edgeprobe_cnn_context": 0,
  "use_classifier": "sst"
}
12/15 02:45:36 PM: MultiTaskModel(
  (sent_encoder): SentenceEncoder(
    (_text_field_embedder): ElmoTextFieldEmbedder(
      (token_embedder_elmo): ElmoCharacterEncoder(
        (char_conv_0): Conv1d(16, 32, kernel_size=(1,), stride=(1,))
        (char_conv_1): Conv1d(16, 32, kernel_size=(2,), stride=(1,))
        (char_conv_2): Conv1d(16, 64, kernel_size=(3,), stride=(1,))
        (char_conv_3): Conv1d(16, 128, kernel_size=(4,), stride=(1,))
        (char_conv_4): Conv1d(16, 256, kernel_size=(5,), stride=(1,))
        (char_conv_5): Conv1d(16, 512, kernel_size=(6,), stride=(1,))
        (char_conv_6): Conv1d(16, 1024, kernel_size=(7,), stride=(1,))
        (_highways): Highway(
          (_layers): ModuleList(
            (0): Linear(in_features=2048, out_features=4096, bias=True)
            (1): Linear(in_features=2048, out_features=4096, bias=True)
          )
        )
        (_projection): Linear(in_features=2048, out_features=512, bias=True)
      )
    )
    (_highway_layer): TimeDistributed(
      (_module): Highway(
        (_layers): ModuleList()
      )
    )
    (_phrase_layer): PytorchSeq2SeqWrapper(
      (_module): LSTM(512, 256, batch_first=True, bidirectional=True)
    )
    (_dropout): Dropout(p=0.2)
  )
  (mrpc_mdl): PairClassifier(
    (pooler): Pooler(
      (project): Linear(in_features=1024, out_features=256, bias=True)
    )
    (classifier): Classifier(
      (classifier): Sequential(
        (0): Linear(in_features=1024, out_features=256, bias=True)
        (1): Tanh()
        (2): LayerNorm(torch.Size([256]), eps=1e-05, elementwise_affine=True)
        (3): Dropout(p=0.1)
        (4): Linear(in_features=256, out_features=2, bias=True)
      )
    )
  )
  (sst_mdl): SingleClassifier(
    (pooler): Pooler(
      (project): Linear(in_features=1024, out_features=256, bias=True)
    )
    (classifier): Classifier(
      (classifier): Sequential(
        (0): Linear(in_features=256, out_features=256, bias=True)
        (1): Tanh()
        (2): LayerNorm(torch.Size([256]), eps=1e-05, elementwise_affine=True)
        (3): Dropout(p=0.2)
        (4): Linear(in_features=256, out_features=2, bias=True)
      )
    )
  )
  (sts-b_mdl): PairClassifier(
    (pooler): Pooler(
      (project): Linear(in_features=1024, out_features=512, bias=True)
    )
    (classifier): Classifier(
      (classifier): Sequential(
        (0): Linear(in_features=2048, out_features=512, bias=True)
        (1): Tanh()
        (2): LayerNorm(torch.Size([512]), eps=1e-05, elementwise_affine=True)
        (3): Dropout(p=0.3)
        (4): Linear(in_features=512, out_features=1, bias=True)
      )
    )
  )
  (wnli_mdl): PairClassifier(
    (pooler): Pooler(
      (project): Linear(in_features=1024, out_features=128, bias=True)
    )
    (classifier): Classifier(
      (classifier): Sequential(
        (0): Linear(in_features=512, out_features=128, bias=True)
        (1): Tanh()
        (2): LayerNorm(torch.Size([128]), eps=1e-05, elementwise_affine=True)
        (3): Dropout(p=0.4)
        (4): Linear(in_features=128, out_features=2, bias=True)
      )
    )
  )
)
12/15 02:45:36 PM: >> Trainable param sent_encoder._phrase_layer._module.weight_ih_l0: torch.Size([1024, 512]) = 524288
12/15 02:45:36 PM: >> Trainable param sent_encoder._phrase_layer._module.weight_hh_l0: torch.Size([1024, 256]) = 262144
12/15 02:45:36 PM: >> Trainable param sent_encoder._phrase_layer._module.bias_ih_l0: torch.Size([1024]) = 1024
…
